autoencoder.pth (torch, 28464 bytes, 10 tensors)

encoder.0.weight f4 [16, 3, 3, 3]
000000 c5 4e 10 be 4f e0 19 be 54 65 7a be b8 cf 73 3d
       -0.14092548 -0.15026973 -0.24452716 0.059524268
000010 29 d9 54 be a3 2f 9c bd 64 64 93 3c 7a b0 7e be
       -0.20785965 -0.076262735 0.017992206 -0.24872008
000020 92 55 30 bd 06 c1 9b 3d cc bf 35 be c1 44 39 be
       -0.043050356 0.07605176 -0.17748946 -0.18092634
000030 7d 8b 8f bd b0 c4 2c 3c e2 60 c0 bc 8e fe 2c be
       -0.07009027 0.010544941 -0.023483697 -0.1689398
000040 42 ed c8 bd 65 b6 5e bc 9b 4f c4 3c aa 4c a3 bd
       -0.09810878 -0.013593291 0.02396374 -0.07973607
000050 83 60 d8 bc b8 5a e1 bc 59 de 4c bd 51 13 02 be
       -0.026413208 -0.027509078 -0.050016735 -0.12702681
000060 3f 2b 52 bd 61 c8 bb bd 18 af ab 3d 36 61 88 bd
       -0.051310774 -0.091690786 0.08383006 -0.066591665
000070 d6 74 1a be bd a4 0d 3e 0c fa 03 be 22 ef 24 be
       -0.15083632 0.13832374 -0.12888354 -0.16106847
000080 c9 6f 11 be 18 e8 f1 bc a0 79 4b bc 80 57 9c bb
       -0.14202799 -0.029529616 -0.012419134 -0.004771173
000090 90 bc 55 3d e7 56 c1 bd 56 64 ba 3d ba 0b 3d be
       0.05218178 -0.094404034 0.09101169 -0.18461505
0000a0 b5 03 26 3e 98 f7 cb bd 22 eb bf 3d 86 a3 8e 3d
       0.16212352 -0.09959334 0.0937102 0.06964783
0000b0 10 29 1f 3c ab b6 37 3e c6 21 d3 3d 08 e8 dc bc
       0.00971438 0.17940776 0.10309176 -0.02696611
0000c0 62 f3 ee 3d 33 1f 3f 3e e2 81 ab 3d 60 f7 f1 bb
       0.11667515 0.18664245 0.083743826 -0.0073842257
0000d0 e0 ce 23 3d b1 64 41 3e 65 99 0b be 74 9f 53 be
       0.039992213 0.18886067 -0.13632734 -0.20666295
0000e0 cd 3b 62 be e5 25 68 be a5 2f 6a be d7 58 90 3d
       -0.22093125 -0.22670706 -0.22869737 0.07048195
0000f0 e4 60 7a be f7 04 11 be 34 c8 34 be 2a 7f 18 bd
       -0.24451023 -0.1416205 -0.17654496 -0.037230648
000100 80 ee f2 3c 37 71 ab bd 61 07 3e bc ac ec 14 be
       0.029654741 -0.083712034 -0.011598439 -0.14543408
000110 72 87 b6 3b 56 4d c7 3d f3 02 01 be 21 66 2d be
       0.0055703456 0.097315475 -0.12598781 -0.1693349
000120 fb 8e 54 be 42 81 b2 bc e2 1a 4a bd 42 2f 17 be
       -0.20757668 -0.02179015 -0.049342044 -0.14764121
000130 36 b0 07 be 23 b5 36 be c3 15 9f bd be 1d ce 3d
       -0.13250813 -0.17842536 -0.077678226 0.100642666
000140 c7 92 4d 3d 5b 3b 42 bd da 7d f3 3b e1 af 15 be
       0.050188806 -0.047419887 0.007430774 -0.14617874
000150 30 fd 7c 3d 40 79 88 bd 20 63 8e bd ac 5c 86 bd
       0.061764896 -0.066637516 -0.069525 -0.065606445
000160 ed 13 f4 3d 24 35 2b 3e 19 87 09 be 2a e2 5d bd
       0.11917863 0.1671949 -0.13430442 -0.054170765
000170 c7 7b b6 3d b4 2d 74 bd 1e 40 d1 bc b9 09 67 3c
       0.089103274 -0.0596139 -0.025543269 0.014101439
000180 e5 88 03 3e 04 22 0c be 16 de d7 bd de b6 cd 3c
       0.1284519 -0.13684851 -0.105404064 0.025111612
000190 e2 2c 87 3d f7 18 3e be 32 fe 22 bc e1 35 39 3e
       0.066003576 -0.18564211 -0.0099483 0.1808696
0001a0 82 3d 36 3e b5 53 92 bd 2c 32 d3 bc b7 21 26 3e
       0.17796901 -0.07144872 -0.02578076 0.16223799
0001b0 00 57 ca bd ab 36 8a 3d 8b b3 93 be 32 e8 51 be
       -0.09879875 0.06748708 -0.28847918 -0.20498732
0001c0 af 8a 05 bd 3a fa a7 3d 7f 97 88 bd 9b 35 97 3d
       -0.032602962 0.08202024 -0.066695206 0.07383271
0001d0 81 db 37 be 42 ca 28 be fa 6c 42 be 5d a1 82 3d
       -0.17954828 -0.16483405 -0.18986884 0.06378434
0001e0 90 a7 af bd e5 b2 c1 bd 40 1c 45 bd 0b 8a a9 bc
       -0.08576882 -0.094579495 -0.048122644 -0.020695707
0001f0 f0 d7 b4 bd a9 8e 55 be 23 02 fc bd de 70 30 3d
       -0.08830249 -0.20855202 -0.12305095 0.04307639
000200 c8 59 6a be f4 a6 cd bd 93 e8 3f be d0 75 40 be
       -0.22885811 -0.100416094 -0.18741064 -0.18794942
000210 76 82 08 bd 7e 67 92 3c fd c1 2a be 50 8f df 3c
       -0.033327542 0.017871615 -0.16675563 0.027290016
000220 72 25 58 be 99 a4 b0 bd e2 cc 34 bd e6 2e 75 bc
       -0.21108034 -0.086251445 -0.044140704 -0.014964795
000230 be 96 0e be 3e ce 6d be 96 13 87 be 9e b2 3a bc
       -0.13924691 -0.23223206 -0.2638213 -0.011395125
000240 8a b2 56 be 7d 75 e6 bd b6 60 a5 3d 55 1c 5e be
       -0.20966545 -0.11252878 0.08075087 -0.21690495
000250 6d 77 24 3e 52 ef ea bd 36 68 0d be b5 3e 65 3d
       0.16061182 -0.11471428 -0.13809285 0.055968005
000260 dd 04 e0 bd e7 99 06 bc f6 34 0d 3d 76 5e 94 3d
       -0.109384276 -0.008215404 0.034474336 0.072445795
000270 6b 13 97 3c ca 75 0b be e9 58 23 be 75 aa ba 3d
       0.018441876 -0.13619152 -0.15951885 0.09114543
000280 ca b1 7b bd c2 17 07 be 4c 9c 39 bd 78 75 32 be
       -0.06144885 -0.13192657 -0.045315072 -0.17427623
000290 3e 51 87 bd f5 ad 1f be 1e cb a9 bd 53 3b e7 bd
       -0.066072926 -0.15593703 -0.08290695 -0.11290612
0002a0 9f d8 69 be 8e 71 71 bd 90 c0 e4 bd 96 36 0e 3d
       -0.2283654 -0.058946185 -0.11169541 0.034720026
0002b0 bc 7f 0f 3e 36 19 63 be 30 50 f8 bc 17 5f 7c 3d
       0.1401357 -0.22177586 -0.030311674 0.061614122
0002c0 0b 45 96 bd 7c 49 95 3d 34 2a 53 be c0 96 45 bd
       -0.07337388 0.07289407 -0.20621568 -0.04823947
0002d0 d3 f1 42 be 2d 1d 1e 3d 33 ff d0 bd d7 a9 63 bc
       -0.19037561 0.038602043 -0.102049254 -0.013895473
0002e0 16 bf fa bd 4f e0 ba 3d 07 61 0c 3d fc d2 bc bd
       -0.12243478 0.09124815 0.03427222 -0.092199296
0002f0 44 b6 ad bd bd 31 13 3e b0 7b 34 be c0 ec 6c bc
       -0.0848203 0.14374442 -0.17625308 -0.0144607425
000300 90 2b 52 3d ce d9 d9 3d 5c a6 0e bd 3c 7b 21 be
       0.051311076 0.10637246 -0.03482662 -0.15769666
000310 ec 77 36 bd 2e e9 af 3d 36 a2 d3 3d 99 e6 0f be
       -0.04454796 0.08589397 0.10333674 -0.1405281
000320 fa 46 be 3d 0d b0 f4 bd 5b a3 b8 bd f2 70 8d bd
       0.092908815 -0.119476415 -0.090155326 -0.06906308
000330 45 06 15 3e 1a d4 98 3d 1c 0e 1c 3d 00 35 9d 3a
       0.14553173 0.0746233 0.038099393 0.0011993945
000340 06 17 88 3d 01 0a 43 be 5c 13 76 bd 19 3e 41 3e
       0.06645016 -0.19046785 -0.060077056 0.18871345
000350 18 4b 86 3c ce 36 d9 3d d9 ac 16 3e ed c6 20 3e
       0.01639323 0.10606156 0.14714374 0.15700884
000360 7a 33 5a 3d 8b 59 87 be 1f cb 97 bc 2c eb 1c 3d
       0.053271748 -0.26435503 -0.018529473 0.038310215
000370 81 0b 43 bc 4e d3 11 be 25 b3 81 be 9c 27 f9 bd
       -0.011904598 -0.14240763 -0.2533199 -0.12165758
000380 e2 51 30 be 1c 1c 5c be d9 31 55 be f7 50 de 3d
       -0.17218736 -0.21495098 -0.20819797 0.108552866
000390 ee db a5 bd f0 3f 51 3d bc 1f 41 bc e6 66 31 be
       -0.08098589 0.051086366 -0.011787351 -0.17324409
0003a0 0a 62 df 3d 44 91 2f be 1e 62 02 3e e7 40 dc bc
       0.10907371 -0.17145258 0.12732741 -0.026886417
0003b0 34 0e 22 3e 95 e2 2b bd 75 52 08 be 2c ae 06 be
       0.1582573 -0.041964132 -0.13312705 -0.13152379
0003c0 40 51 fc bd c3 1f 9e bd a1 f5 43 3d 1b b7 11 3e
       -0.12320185 -0.07720902 0.04784167 0.14230005
0003d0 1b 4c 70 3e 86 84 ba 3d 84 72 bf bc da 4e 12 3e
       0.23466532 0.09107308 -0.023370035 0.14287892
0003e0 1f 74 ab 3d 25 cf d6 3d 06 50 6f 3e 9c ed 07 3e
       0.08371758 0.104887284 0.2337037 0.13274235
0003f0 d4 45 88 3d bb 3c 67 bd a5 dd e4 3c 39 6c c4 bd
       0.06653944 -0.0564544 0.02793772 -0.09590954

encoder.0.bias f4 [16]
000000 3b ac 05 3e f4 4c 48 bd 76 cd 8d bd 1d 1b a9 bd
       0.13053982 -0.048901513 -0.06923954 -0.082571246
000010 3f 43 b8 bd db ce 2a 3e 30 75 90 3d 4c 25 e6 bd
       -0.08997201 0.16680472 0.07053602 -0.112375826
000020 af 86 f3 3c 4f f7 a6 3e 3e 0b ff 3c d8 3e 95 3d
       0.029727308 0.32610556 0.03113329 0.07287377
000030 03 e0 02 be c1 fe c7 3c 7b 2a f2 3d 84 eb bc 3c
       -0.12780766 0.024413468 0.11824509 0.023061521

encoder.3.weight f4 [8, 16, 3, 3]
000000 16 43 74 3d 7c c1 3b bd 40 30 7b 3b a6 f4 be 3d
       0.05963429 -0.045838818 0.003832832 0.09324007
000010 4f 70 c3 3d d6 78 9c 3d de 6b 74 3d 72 b4 3d bd
       0.095429055 0.07640235 0.059673183 -0.046314664
000020 e4 f0 a3 3d e2 6b 5e 3d ee 37 4e 3d 18 f6 20 bc
       0.080049306 0.054302104 0.050346307 -0.009824298
000030 2b 00 33 bd 03 6d 87 3d 33 92 5f bd ac 4b d0 3c
       -0.043701332 0.06612589 -0.054582786 0.025426708
000040 4e 0d 76 3d a0 9c 1d 3c 0a fb 28 3d 82 04 8e 3c
       0.060071282 0.009619862 0.041255035 0.017336134
000050 ac 82 ad 3d 9b d5 75 3d 76 d2 dd 3d 0f 15 0b bd
       0.08472189 0.060018163 0.10831158 -0.03395563
000060 48 70 b7 3d 2e 00 d1 3a 00 24 af 3d a0 ad a9 3d
       0.08956963 0.0015945488 0.08551788 0.082850695
000070 b9 7d 90 bd b3 4e da 3c 81 c4 c9 3c 4c f9 4e bd
       -0.0705523 0.026648855 0.024629833 -0.050530717
000080 66 0d ff 3b f2 37 1e bd 7e 99 74 bd bf 26 d3 bc
       0.0077835796 -0.038627572 -0.059716694 -0.025775312
000090 f5 4f 34 3d 52 7c 4d bd d8 a8 a5 3d a0 2a d8 bc
       0.044021565 -0.05016739 0.08088845 -0.026387513
0000a0 96 ad 9e 3c 54 72 4e 3c 5d 85 52 3c ab 0a 1f bd
       0.019369882 0.0126005 0.012849179 -0.038828533
0000b0 9b 5f c1 3d 2d 2f 0c 3c 1e e2 d6 3d 87 89 b5 3d
       0.094420634 0.008556169 0.10492347 0.08864122
0000c0 60 a1 bb 3d 60 04 85 3d 50 81 aa 3d e5 e5 35 3d
       0.09161639 0.06494975 0.08325446 0.044408698
0000d0 1b 6e 09 3b 5c 43 52 3d a8 05 43 3b c5 78 e4 bc
       0.002097017 0.05133377 0.002975801 -0.027889619
0000e0 3b 3d 8a 3c de f3 ce bc d9 13 e9 3d 81 ba c3 3d
       0.0168749 -0.02526277 0.11380739 0.09557057
0000f0 3b b8 d1 3b 88 b2 19 bd 9f 0f 84 3c e0 ec 25 3b
       0.006400136 -0.037523776 0.01612073 0.002531819
000100 20 60 16 bd 86 d7 78 bd 48 a8 0f bd 66 96 68 3d
       -0.036712766 -0.060752414 -0.035072595 0.056784056
000110 cc 2a 9a bc 32 9c 83 bd de 3d 2b bd 87 bd 8b bd
       -0.018819235 -0.06426276 -0.041807048 -0.06823259
000120 41 d1 9a 3d ca 19 90 3d de 5b c8 3d 62 28 b0 bc
       0.07559443 0.07036169 0.09783147 -0.021503631
000130 04 d0 3f bd eb 07 9c 3b 06 4e 0a 3d 23 79 0c bd
       -0.04682924 0.004761686 0.033765815 -0.034295212
000140 36 cb 95 3d f1 08 34 be 4e f7 84 bd 6a 98 b6 bd
       0.0731415 -0.17581536 -0.06492482 -0.089157894
000150 66 79 2e be ed 6b 31 be 16 c5 27 be a1 47 2b be
       -0.17038497 -0.17326327 -0.16383776 -0.16726543
000160 c5 21 a0 bd 3c 9c 96 bd 40 2c 51 3d e2 97 9b 3d
       -0.07818941 -0.07354018 0.05106759 0.07597329
000170 d9 3a a6 bc bc 69 c3 3d f8 56 9c 3d fc 43 80 3d
       -0.020291733 0.095416516 0.076337755 0.06262967
000180 bb 72 a0 3d cb d9 32 3c 4a 61 a3 3d 60 73 b4 bb
       0.07834383 0.010916184 0.07977541 -0.005506918
000190 2a bb bd 3d 33 c0 e4 bb d5 c9 ca 3c bf 22 cd 3d
       0.09264214 -0.0069809197 0.024754444 0.10016393
0001a0 57 53 38 3d dc d1 c6 3d 94 38 a9 3d f3 89 c4 bc
       0.045001354 0.09707996 0.082627445 -0.02399156
0001b0 c1 82 e6 3d 50 69 7b bc 42 16 26 bc 0f 04 3e 3c
       0.11255408 -0.015344933 -0.010137143 0.011597647
0001c0 2c d4 1e bc c6 cd 5b 3d 02 a6 c4 3d a9 9a 96 3d
       -0.00969414 0.053663038 0.09601976 0.07353718
0001d0 67 20 f9 3d a3 22 e8 3c aa d8 95 bc 3b 58 10 bd
       0.121643834 0.028336829 -0.01829179 -0.035240393
0001e0 66 2b 0c bd ef dd 14 3d ac cf cd 3a eb 2e 1c 3d
       -0.034221075 0.036344465 0.001570215 0.038130682
0001f0 be 73 15 3d fe 86 24 bd 89 bf 63 3d 10 81 97 3b
       0.036487333 -0.0401678 0.055602584 0.0046235397
000200 93 ea 3b 3d fe 18 89 bb 71 b9 95 3d ad 17 ea 3d
       0.045878004 -0.0041838875 0.07310761 0.11430297
000210 38 1c 92 3d 04 79 08 bd 9e 5b da 3d 44 22 85 3d
       0.071342885 -0.033318534 0.10662006 0.06500676
000220 45 24 cb 3d 97 6f c3 3d 29 69 aa 3c c5 74 d0 3d
       0.09919027 0.095427684 0.020802097 0.10178522
000230 46 4e f9 bc 00 55 4f 3d 88 1a 44 3d 7f 07 be 3d
       -0.030432831 0.05061817 0.047876865 0.092787735
000240 73 5b 34 bd a3 78 69 3c 49 98 b7 3d 37 11 0f bc
       -0.044032525 0.014249953 0.08964593 -0.008732132
000250 2e 35 f9 3c 90 fe 0a 3d 29 40 4a 3c 5f 5a 50 bd
       0.030420866 0.033934176 0.012344399 -0.050867435
000260 3a b0 85 3c 46 56 60 3d e8 1c 4b bc e3 3c 80 bd
       0.016319383 0.054769777 -0.0123970285 -0.06261613
000270 7a 32 33 3d 50 cc 7f bd a1 d8 a6 3d 3d 81 a8 3d
       0.04374931 -0.062450707 0.081467874 0.08227775
000280 36 61 79 bd 88 f3 63 bd 34 b2 86 3c e9 ac 94 3d
       -0.060883723 -0.05565217 0.016442396 0.072595425
000290 21 b2 25 bd d6 0b 2e 3d cb 0e ce bb 32 48 b3 3d
       -0.04045308 0.042491756 -0.0062883846 0.087540045
0002a0 8a 23 c6 3c b5 2d 52 bc de 22 b1 bc 1c 4e 02 3d
       0.024186868 -0.01282828 -0.021623071 0.031812772
0002b0 b5 07 97 3d bb 2a 99 3d 60 a2 a8 bc 61 c8 f6 38
       0.07374517 0.07478853 -0.020585239 0.000117675176
0002c0 e5 19 b2 bc f9 a0 e0 3c 63 0c 96 3d 01 94 7c 3c
       -0.021740863 0.027420508 0.07326581 0.015416146
0002d0 50 f5 35 bd 0c 19 ae 3d 5b bd 67 3d 65 29 81 3d
       -0.0444234 0.08500871 0.056577068 0.063067235
0002e0 ee d6 a6 3d 50 cc af 3d f8 6a 8a 3d cf 9a 5b 3d
       0.08146463 0.085838914 0.06758684 0.053614434
0002f0 15 54 d6 bc 99 ce 71 3d 73 6a 1a bd 49 df 89 bd
       -0.02616314 0.059034918 -0.037699174 -0.067320414
000300 83 b4 95 3d 8b ec 11 3c cb 72 bb 3c 07 63 5a bd
       0.073098205 0.008906494 0.022881886 -0.053317096
000310 ce d3 cc 3d 61 dc a3 3d 55 a4 c3 bc 95 5f cc 3c
       0.10001336 0.08001018 -0.02388207 0.02494792
000320 d3 1d d1 3d f1 14 41 bd 16 ea 88 3d e2 7b 16 bd
       0.10210767 -0.047139112 0.06685273 -0.036739238
000330 8b 51 ce 3d 17 26 4c bd ab 07 2d 3d ea 3c 20 3d
       0.10074147 -0.049841013 0.04224364 0.039120592
000340 00 bf da b9 e3 43 0a bd 61 87 9c 3d d7 87 9b bd
       -0.00041722506 -0.033756148 0.07643009 -0.07594269
000350 24 4d 83 3c 2c ef ac bc 70 a7 38 bd 00 c9 8f ba
       0.016027994 -0.02111014 -0.045081556 -0.0010969937
000360 41 57 d1 3c 1a 37 b2 3d 6a 9b 1f bd 94 b7 13 3d
       0.025554301 0.08701916 -0.038966574 0.036063746
000370 28 f8 61 3d f4 fa 1e 3d 64 50 8b 3b 31 1f 2f 3d
       0.0551683 0.038813546 0.0042515267 0.042754356
000380 1d 88 b6 3d 44 68 f4 bd 07 b3 98 bc c6 11 14 be
       0.0891268 -0.119339496 -0.018640054 -0.14459905
000390 bd 44 f3 bd 5f af 22 be 6c d0 69 bd 5e 26 dd bc
       -0.11878345 -0.15887211 -0.057083532 -0.026995834
0003a0 a2 f7 80 bc 6f 94 82 bd 48 a4 7f 3d bf f4 56 3d
       -0.01574308 -0.06375968 0.06241253 0.0524795
0003b0 f8 95 aa 3d f3 a8 1e bd d1 d4 72 3c 67 89 b2 3d
       0.083293855 -0.03873534 0.014821247 0.08717614
0003c0 fe 9c a0 bb 00 6f 05 bd 70 5e cb 3b 9a d4 7c 3c
       -0.0049015274 -0.03257656 0.006206326 0.015431548
0003d0 76 5e ea ba a0 ae 6c 3d fa 5a d6 3d 91 7d a3 3d
       -0.0017880935 0.057783723 0.10466571 0.07982934
0003e0 43 1e 4c bd d3 b6 97 3c 2d 41 ba 3d 52 d4 b9 3d
       -0.049833547 0.018519795 0.090944625 0.090737
0003f0 e9 78 e7 bc 92 67 13 bd 5c d8 0a 3d 0c 03 96 3d
       -0.028255897 -0.035987444 0.033897743 0.073248

encoder.3.bias f4 [8]
000000 07 20 34 3c 31 28 fc bb 93 33 06 bd 7f db 69 3b
       0.010993964 -0.007695221 -0.03276403 0.0035683808
000010 e9 14 c6 3c aa 2c 1e bd 12 ea 9a 3d c3 a1 be 3c
       0.024179893 -0.038616814 0.075641766 0.023270493

decoder.0.weight f4 [8, 16, 3, 3]
000000 0f d1 96 3d a2 78 5c 3d 6f e6 9f bd 6c 48 b1 bc
       0.073640935 0.053825982 -0.078076236 -0.021640979
000010 48 5f 58 3c 10 ab fb 3b 80 c3 57 bd 2d 8a 97 3d
       0.013206311 0.0076803043 -0.052676678 0.07399402
000020 be 2e 7a 3d f1 7e 66 3d 9e 57 d2 bc ac 71 71 3d
       0.061079733 0.056273405 -0.025676545 0.058946297
000030 88 90 0e bd 38 06 9c bd f6 9c 23 3d 24 71 82 3d
       -0.034805804 -0.07618374 0.03994461 0.06369236
000040 d6 2b c7 bd 6c d4 38 3b 4f 16 fe 3c f2 81 85 3d
       -0.09725158 0.0028202785 0.031016497 0.06518926
000050 4f ff 3a 3d a0 1d 5e bb 1c 32 10 bc 6b 9b 7a bd
       0.045653637 -0.003389217 -0.0088010095 -0.061183374
000060 47 84 90 3d b4 f5 31 bd f4 b6 49 3d 4d 5d de 3b
       0.0705648 -0.04344721 0.049246743 0.0067860247
000070 6d 31 7a 3d 9d d2 2e bd 8a bd 15 bc b2 16 7a bc
       0.061082292 -0.042681325 -0.009139428 -0.0152642
000080 df 12 d5 bc 02 c9 9f bd be ad 0f bc b7 da 44 bb
       -0.026009975 -0.07802011 -0.008769451 -0.003003759
000090 08 57 5a bd 51 5e af 3d 25 4c 03 bd f9 c4 6f 3d
       -0.053305656 0.08562911 -0.03205504 0.058537457
0000a0 dc e5 1d bb 5d 43 c0 3d 9e 2a 25 bb 69 bb d8 3b
       -0.0024093306 0.093878485 -0.0025202404 0.006614138
0000b0 75 04 04 3d 3b 38 f1 3c d3 69 a6 3d 13 9b b4 bc
       0.032230813 0.029445758 0.08125653 -0.022046601
0000c0 9e f7 c4 3d 54 27 2a 3d 79 b6 0b 3d aa ab 04 bd
       0.09617542 0.041541412 0.034109566 -0.032390274
0000d0 9c 08 f7 3d c3 65 ea 3d e3 18 b9 3c 85 c1 67 3d
       0.12062189 0.11445191 0.022594875 0.05658104
0000e0 3c ee 28 3d 8d 98 07 3c 3c 0a 85 3d 32 c2 3e bd
       0.041242823 0.008276117 0.06496093 -0.046571918
0000f0 ca 82 10 3d 49 e9 b3 bc 5d 0c 46 3d 40 82 32 bd
       0.03528098 -0.021961825 0.048351634 -0.043581247
000100 63 9e 8a 3a 8c db 10 3d fb dc b8 bd d5 a2 00 3e
       0.0010575767 0.035365626 -0.09026524 0.12562115
000110 2b 49 a5 bd a0 9f 12 bd 92 80 78 bc 60 f4 c2 3b
       -0.08070596 -0.03579676 -0.015167372 0.005949542
000120 0a 26 9a 3d d6 86 44 3d 30 e6 72 3d f6 54 3f bd
       0.075267866 0.047980152 0.059301555 -0.046711884
000130 1d 0e a3 3d c3 a9 18 bd b9 56 e7 3c 86 67 21 3d
       0.07961676 -0.037271272 0.028239595 0.03940537
000140 b5 3e 54 bd 36 f8 8a 3b aa 24 41 bd 5f c0 4f bd
       -0.051817615 0.004241015 -0.047154106 -0.05072057
000150 99 26 ac 3d 3b 89 b6 3d 91 ec 37 3d e7 b9 fa bc
       0.084057994 0.089128934 0.04490334 -0.030606223
000160 5e f0 79 3d 32 1e eb 3c ae 75 6d bd 23 18 76 bd
       0.061020248 0.028700922 -0.057973556 -0.060081612
000170 67 82 9d bd a9 c7 ff bc ee 5d eb bc f4 60 06 3d
       -0.07690888 -0.031223135 -0.028731313 0.032807305
000180 b1 dd 97 3d 38 d5 9d bd 8a 1a 09 3d a8 e9 35 bd
       0.07415331 -0.07706684 0.033472575 -0.044412285
000190 8a 4a b5 bc 50 9b b2 3d ef d8 f3 3d 1b a4 88 3d
       -0.02213027 0.0872103 0.11906611 0.06671926
0001a0 02 02 f4 3d c2 be b9 3b 31 99 f9 3d 5a 89 9f 3a
       0.119144455 0.005668492 0.12187422 0.0012171671
0001b0 81 3b 15 bd da bf 28 bc dc 0d 87 3c b1 08 19 3d
       -0.0364337 -0.010299647 0.0164861 0.037361804
0001c0 ba 34 81 bd be 4e 2f 3d ba 77 73 bd 2a 7f 24 3d
       -0.06308885 0.042799704 -0.059440352 0.040160336
0001d0 fc 1f 96 3b 33 2f 4e bd 0b fc 6a bd 5e 40 30 bd
       0.0045814496 -0.05033798 -0.057369273 -0.043030135
0001e0 7d a7 3d bd 9d 82 0c 3d 7d 0e 72 bd b4 7e d4 3c
       -0.046302307 0.03430425 -0.05909585 0.025939323
0001f0 4b 3d 02 bd 7b b4 64 bd 08 b2 90 bd d4 38 04 bd
       -0.031796735 -0.055836182 -0.07065207 -0.032280758
000200 c8 8f 6c bd 75 8e 49 3d 62 b1 80 3d d3 bb 0d bd
       -0.057754308 0.049208123 0.06283833 -0.03460295
000210 90 6c 8e 3b 61 87 8b 3d 10 d5 dd bc 31 a7 9a 3d
       0.0043464378 0.06812931 -0.027079135 0.075514205
000220 6e 62 40 bc 00 23 24 bc bb 5b 52 bd 82 c2 9f 3d
       -0.0117422175 -0.01001811 -0.051357012 0.07800771
000230 8d 4f 8e 3d 82 61 62 3d 43 78 34 3c 8c 41 cd 3c
       0.06948767 0.055268772 0.011015001 0.02505567
000240 4c 9d b3 3c bb 37 b4 3d 2a b4 7c 3d 08 2d 9e bd
       0.021925591 0.08799692 0.061695255 -0.07723433
000250 70 e6 93 bd 5c c0 9e bd 2e 67 5b bd b4 ba 4a bc
       -0.07221687 -0.077515334 -0.053565197 -0.012373615
000260 f6 74 b5 bc 35 58 1e 3d 89 ff e3 bd a7 8a ce bd
       -0.022150498 0.03865834 -0.11132724 -0.100850396
000270 6c c5 c1 3c 86 8d bd bd 70 5d bd 3b 2b e6 40 bd
       0.023653708 -0.09255509 0.005778961 -0.047094505
000280 f4 8c c9 bc f8 3b 57 bd d4 e3 37 3c 80 61 94 3b
       -0.024603345 -0.052547425 0.011223752 0.0045282245
000290 31 b9 ee bc 77 12 9a 3d 9c be 03 bc 76 e3 10 bd
       -0.02914104 0.07523053 -0.00804105 -0.035373174
0002a0 da c0 a4 3c 8d 03 91 3d d8 3f 9d 3c 57 5c 8c bc
       0.02011149 0.070807554 0.019195482 -0.017133875
0002b0 ce e2 8a 3d 7d 21 96 bd eb 2b c9 3a 6f d6 35 3c
       0.06781541 -0.07330606 0.0015348172 0.011098488
0002c0 b8 e1 29 3d d1 e6 af bd 00 80 3a 3d b2 c3 07 3d
       0.041475028 -0.085889466 0.045532227 0.033145614
0002d0 fb 4f 7a 3d 0f 61 ad 3c df 00 a8 bd 58 7e ef 3c
       0.06111143 0.021164445 -0.08203291 0.02923505
0002e0 f5 2e 62 3d f4 f0 98 3d 7a c3 97 bd d7 92 84 3d
       0.055220563 0.07467833 -0.07410331 0.0647332
0002f0 ae f1 55 3d 0e 10 d2 3c 47 cf e5 bc ee 2b 55 bc
       0.052232437 0.025642421 -0.02805294 -0.013010962
000300 60 b9 8b 3d 9c 4f b0 3d 80 10 1d 3e 8f cd cb 3d
       0.06822467 0.08608934 0.15338326 0.099513166
000310 be 51 42 3d b1 0b 10 3c 53 77 74 bd 85 fe d4 bc
       0.047441237 0.00879185 -0.05968411 -0.02600027
000320 6b 50 42 bd 62 17 93 bd 52 3b 1a bd 6f b9 38 3d
       -0.047439974 -0.07182194 -0.03765423 0.04509872
000330 ed 67 c3 bd dc dd d7 3c 02 ef c4 bd a1 17 b6 3d
       -0.09541307 0.026350908 -0.096158996 0.088912256
000340 48 d0 86 bc 9f df 45 3d 43 03 8f bd c2 81 79 bc
       -0.016456738 0.048308965 -0.06983044 -0.015228691
000350 2c 32 cf bc 3f 47 a9 3d 20 e6 0d 3d 79 56 7a 3d
       -0.025292479 0.08265542 0.034643292 0.061117623
000360 46 1f 97 3d 4f e0 f6 3c ef 31 55 bd 40 ea 97 bd
       0.07379012 0.030136256 -0.052049574 -0.074177265
000370 70 2a b4 3d 8b 64 95 bd 6b c1 03 3d 88 15 1a bd
       0.08797157 -0.07294568 0.03216688 -0.03761819
000380 a4 03 84 3d 50 5b 34 3d 1a f1 a0 3d 1f 6e 4b bb
       0.06446007 0.044032395 0.078584865 -0.003104098
000390 44 70 53 3d a0 39 e2 3c 3b c4 c6 3c 74 3a 22 bd
       0.051620737 0.027615368 0.024263492 -0.039606526
0003a0 a6 a4 32 3d 61 c7 c9 3c d2 f9 66 3d b5 41 9b 3d
       0.043614052 0.024631204 0.05639059 0.07580892
0003b0 72 2c 31 3d ab 57 cb 3c 2f 57 bd bd 3c 62 5c 3c
       0.043255277 0.024822077 -0.092451446 0.013451155
0003c0 d0 e5 db bb cb f0 00 bd 8a 4f 4a 3d 93 1a 60 bd
       -0.0067107454 -0.031479638 0.04939226 -0.054712843
0003d0 34 a5 ad 3d b2 ca aa bc a3 fd d5 3d 63 ed 18 3c
       0.084787756 -0.020848606 0.10448768 0.009333941
0003e0 ad 7b 58 3d ed c6 b8 bc dd 9b b8 bc bb 74 9b 3d
       0.05285232 -0.022555793 -0.022535259 0.07590624
0003f0 7e cb e5 3c 9a d3 ad bc b2 2d 9e bb 69 5a b9 3c
       0.028051134 -0.021219064 -0.0048272246 0.022626119

decoder.0.bias f4 [16]
000000 b1 0e a7 bd 44 2b a6 bd 66 8a ff bc 0c 3d 90 3d
       -0.08157099 -0.08113721 -0.031193923 0.07042894
000010 10 cc df 3d 35 90 e1 3d 8b 0f 61 bc 63 83 50 bc
       0.10927594 0.110138334 -0.013736616 -0.012726638
000020 f7 b4 03 3c 99 52 a8 3d cb e8 fe bd 35 2c 92 3d
       0.008038751 0.08218879 -0.124467455 0.07137338
000030 d1 c6 3a bd e7 88 96 3d 5e 5a 29 bd 23 83 b9 bd
       -0.045599762 0.07350331 -0.041345946 -0.090582155

decoder.2.weight f4 [16, 8, 5, 5]
000000 bc c9 7d bd 66 c7 08 3d e8 86 0c bd 4f 61 8a bd
       -0.061959967 0.033393286 -0.034308344 -0.067568414
000010 35 ac 8c bd d2 c9 6e 3d 4a 62 16 3d fc 0e 83 3c
       -0.068687834 0.05829794 0.03671483 0.015998356
000020 32 4b 6f 3d 30 a9 b4 3b b3 74 01 bd 0a 82 c4 bc
       0.05842132 0.005513333 -0.031605434 -0.023987789
000030 60 27 0f 3c 16 cb 27 3d 5a 95 3f 3d eb 08 b1 3c
       0.008737415 0.040965162 0.046773292 0.021610698
000040 3c e7 5c 3c 9c 93 4b bd 33 a3 d7 3d 11 4c ce bc
       0.013482865 -0.04970132 0.10529175 -0.025182756
000050 60 0f 55 bd 80 2d d4 3b ce 52 77 bd 37 e6 1a bc
       -0.052016616 0.0064751506 -0.060381703 -0.009454302
000060 ba 07 03 bb f5 35 50 bd 96 50 b4 3a c4 6e 01 3d
       -0.001999362 -0.050832707 0.0013756927 0.031599775
000070 ce b8 9a bd 1c e2 2b bc ec 02 71 3d f0 1e cb bc
       -0.0755478 -0.01049092 0.058840677 -0.024795026
000080 1d b8 66 bc e5 14 76 3d b6 bb d6 3d b0 4c a6 3c
       -0.014081982 0.06007852 0.10485022 0.02030024
000090 a4 35 15 3d c8 86 8b ba 94 9d 89 bc 3c 1f 80 bd
       0.03642811 -0.0010645026 -0.016798772 -0.062559575
0000a0 e0 8b 4e bd 94 8f 87 3d e0 59 30 bd a8 d3 f2 bc
       -0.050426364 0.06619182 -0.04305446 -0.029641941
0000b0 d5 ae c5 bc 10 d8 87 3c 16 c1 11 3d 82 4d 5a bd
       -0.024131218 0.016582519 0.03558453 -0.053296573
0000c0 fe 75 74 3c a9 69 85 3d 20 f8 8b 3d 07 51 10 bd
       0.01492071 0.06514294 0.068344355 -0.035233524
0000d0 4b af 82 3d 02 11 ed 3c c3 a2 76 3d 3c f0 05 bd
       0.06381091 0.028938774 0.060213815 -0.03269981
0000e0 c7 dc 07 bc 11 c2 98 bc 34 3c 7f 3d 47 4d 80 3d
       -0.0082923835 -0.018647226 0.062313274 0.062647395
0000f0 ec d1 b9 3d 37 df 98 3c ab 3a 88 3d 3e 4c c6 3d
       0.090732425 0.018661125 0.06651815 0.09682511
000100 51 25 8c 3d c2 bd 13 bc fb da ab 3d 65 ca 44 3c
       0.06843055 -0.00901741 0.083913766 0.012011145
000110 d0 cb 77 bb b3 61 80 3d 2f d3 4d ba c6 74 ac 3d
       -0.003781069 0.06268635 -0.0007851598 0.0842071
000120 84 c7 0f 3d 0e 22 83 3c ea a0 a9 3d 7d 45 18 bd
       0.035102382 0.01600745 0.08282645 -0.037175644
000130 33 1f 7c 3c 20 65 28 bd 46 7f 3c bd 95 0a 09 3a
       0.015388298 -0.041112065 -0.046019815 0.0005227712
000140 4c 9a cf 3b 29 c8 81 bc 52 1e f2 3c d4 f8 53 bd
       0.0063355323 -0.015842514 0.029555473 -0.051750973
000150 b3 e5 4b bd 0a 16 1f bd 49 2c c2 bd c8 cc b1 3a
       -0.049779605 -0.038839377 -0.09481103 0.0013565058
000160 a6 d1 9f bd eb 15 bf bd 5c ce ca 3c 07 c8 83 3b
       -0.07803659 -0.093303524 0.024756603 0.004021648
000170 72 35 d8 3b 03 04 a7 3a c5 6a 69 bd 0d 2d 95 bd
       0.006598168 0.0012742284 -0.05698659 -0.072839834
000180 96 4a 2e 3d 99 38 9a bb cf 9c ad bb 5c 3b 9a bd
       0.0425516 -0.004706454 -0.005298234 -0.07530853
000190 f0 f8 f5 bc 34 b1 a4 3c 7b 41 90 3c 24 4d da bc
       -0.03002593 0.020104028 0.017609349 -0.026648112
0001a0 46 53 91 bc 81 f7 80 3d f6 82 29 bd ea da 5b bd
       -0.017739903 0.062972076 -0.04138466 -0.05367557
0001b0 7e af 70 3d 26 6d 3c bd 13 3c 94 bc 0e 86 8c 3b
       0.058761112 -0.04600253 -0.018095052 0.0042884415
0001c0 97 b8 46 3d 74 c5 39 bc 36 f6 0f 3c 34 4d 41 bd
       0.048515882 -0.01133858 0.008786729 -0.047192767
0001d0 e8 45 79 3c e6 50 f1 bc ec b3 72 bd 88 fe 57 bd
       0.015214421 -0.02945752 -0.059253618 -0.052732974
0001e0 f2 85 8a 3c 0f d9 7d bd c8 aa 67 bd 74 ab 3b bd
       0.016909573 -0.06197458 -0.056559354 -0.045817807
0001f0 3c 52 b7 bc 4e fb 9c bc b9 1d 8d bd 2e 53 6c bd
       -0.02237808 -0.0191628 -0.06890435 -0.057696514
000200 20 14 e1 3c 41 5d 85 3d 82 20 64 bd 86 7d 4c 3d
       0.027475417 0.065119274 -0.055695064 0.049924396
000210 8d 59 02 3c c9 fb 8f bd c0 2f 0a 3c 2a b6 19 3d
       0.007955921 -0.07030446 0.008434236 0.03752724
000220 d0 cb 26 3c 34 3b f6 bc 2c 48 7a bc fd 13 16 3c
       0.010180429 -0.030057527 -0.015275996 0.009160039
000230 54 30 06 bd 42 7a c5 bc 30 a3 07 3d 72 6f 7f 3d
       -0.032760933 -0.024106149 0.033114612 0.062362142
000240 5e 20 53 bd eb 39 86 bd e8 f2 15 3d 06 d5 cd 3c
       -0.05154454 -0.06554016 0.036608607 0.025125992
000250 91 f6 87 3d e8 77 20 bc fa b0 00 bd d9 87 15 bd
       0.06638826 -0.009794213 -0.031418778 -0.036506508
000260 59 4a 05 3d 68 82 46 bc fd 30 bc bd 52 eb 23 bd
       0.032541607 -0.012116052 -0.09189031 -0.04001934
000270 7c 62 42 bd ae 9b 93 39 96 54 20 bd 2d e7 31 3d
       -0.047457203 0.00028154015 -0.039143167 0.043433357
000280 3e e8 42 3c 1b 05 59 3d 95 a0 0f 3b 40 2c 4d bc
       0.011896191 0.052983385 0.0021915783 -0.012522757
000290 c0 1d 21 bc 6a a1 7d bc 20 c8 fd 3b 58 c0 5d 3c
       -0.009833753 -0.015480379 0.007744804 0.013534628
0002a0 7b cb e7 3b b1 b0 85 3c 23 aa 48 bd 3b e7 64 bd
       0.0070738173 0.016319605 -0.04899038 -0.05588458
0002b0 a7 0e dc 3b c1 36 d7 3c 7f 68 8c bd 0c d4 3f bd
       0.006715614 0.026271226 -0.068558685 -0.046833083
0002c0 47 a5 15 3d b3 b4 71 3d 00 47 80 3a 2e 42 27 bd
       0.036534574 0.05901022 0.0009786785 -0.0408346
0002d0 2d bb 9e 3d 14 c6 8f 3d 13 45 7a 3d aa 39 15 3d
       0.07750545 0.07020202 0.06110103 0.036431946
0002e0 a2 d0 8d bd 9c a1 04 bd 8f 17 06 3d 1b 4d 5c 3d
       -0.06924559 -0.032380685 0.03273731 0.05378447
0002f0 e7 14 6c bc 39 89 46 bd a2 ed d3 bc be 7d f1 bc
       -0.01440928 -0.04847071 -0.025870148 -0.029478904
000300 42 dd 00 3b 1f 28 f1 3b 8f a3 9e 3c ea ab 57 3d
       0.001966313 0.007359519 0.0193651 0.052654184
000310 37 21 b7 bd 92 ee 80 3d 60 6c 94 bc 1f 4f ac 3c
       -0.08941882 0.06295504 -0.018118083 0.021033822
000320 75 15 aa 3c 64 29 5b bc 18 b1 51 3c 15 c6 18 bd
       0.020762185 -0.0133765675 0.01279857 -0.03729828
000330 27 bd 85 3d 89 45 38 bd 98 95 16 3c 39 86 e0 3c
       0.065302186 -0.04498819 0.009190939 0.027407752
000340 34 fe 2f 3d d0 dd 39 bd 20 e5 c3 3b 2c 82 5c 3d
       0.042967036 -0.045377553 0.0059782416 0.05383508
000350 80 0f 83 bb 5a 2a 1b 3b 08 cb 1e 3c 8d 15 87 bd
       -0.0039996505 0.0023676367 0.009691961 -0.06595907
000360 a9 ce 51 bd f4 5e 3d bd 91 ed fc 3c f8 ea 6a bd
       -0.051222477 -0.046233132 0.030875 -0.05735299
000370 d6 43 32 bd a6 6d 85 bd f1 e0 ba 3b de bc 62 3b
       -0.043521725 -0.065150544 0.0057030846 0.0034597437
000380 27 54 04 bd 74 84 c1 3c 24 0f 2d bc 98 c4 43 bc
       -0.032306816 0.023622729 -0.010562692 -0.011948727
000390 d3 36 a0 3d e9 b7 85 3d 7e 6c 75 3d ab 3f 35 bc
       0.07822957 0.06529219 0.05991792 -0.011062543
0003a0 3e fd d2 bc 39 c1 4e 3d 81 0c 6d 3d 7d 5d 7a 3b
       -0.02575552 0.05047724 0.057873253 0.0038202696
0003b0 0e 1b 0f 3d ca a1 20 3d 13 5c a4 3c d9 b4 9e 3d
       0.03493791 0.039216794 0.020063436 0.07749338
0003c0 f7 9d 8f bc 5c a3 9a 3d ad c6 65 3d 71 97 8d 3d
       -0.017531378 0.075506896 0.056097675 0.06913651
0003d0 5f 32 59 bd 0b d4 b4 3d 89 fb e6 3c 60 fd 2d ba
       -0.053026553 0.088295065 0.028196113 -0.0006637182
0003e0 ff 29 b5 3d 30 94 b8 3c 41 c3 3e bd 00 08 c3 bb
       0.08845901 0.022531599 -0.046572927 -0.0059518814
0003f0 65 48 46 3c d0 71 28 bd 40 45 aa 3d 22 1f 87 3d
       0.012102221 -0.041124165 0.0831399 0.06597735

decoder.2.bias f4 [8]
000000 2c f6 09 be aa c1 86 3d 5d 10 44 3b c5 9e e0 3c
       -0.13472813 0.06579907 0.002991698 0.027419457
000010 68 ba 9e bc e1 f4 90 3c a5 12 c8 3d db 8d 03 be
       -0.019375995 0.017694892 0.09769181 -0.12847082

decoder.4.weight f4 [8, 3, 2, 2]
000000 a9 af 80 be 6f cc 17 be a9 53 92 bb 5d 2d af be
       -0.25134018 -0.14824079 -0.0044655395 -0.34214297
000010 24 ae d8 bd 7f 20 94 3e dd bb 15 bd 91 2f 11 3d
       -0.1058009 0.28931043 -0.036556114 0.035445753
000020 46 ba a6 be 6a 30 c5 3d 66 4c 2e be 7c 76 04 be
       -0.3256399 0.09628375 -0.17021331 -0.12935823
000030 91 db 56 3d 5f 46 a9 3d 5f f5 74 bd 1e 06 93 3e
       0.05245549 0.08265375 -0.059804317 0.28715605
000040 3b 1e 90 3d bb fa aa bd 91 b9 c9 3d 0f f2 5b be
       0.07037016 -0.08348604 0.09849847 -0.21479057
000050 45 e2 a4 bd ac b6 4c be 4d 09 7c be 1e da ac bd
       -0.0805097 -0.19991559 -0.24612923 -0.0844004
000060 c2 8a 73 bd 49 fa d5 bd ff 38 90 bd 2e 8b 3e be
       -0.0594585 -0.10448129 -0.07042121 -0.1860778
000070 a5 87 5b be 77 18 7a be a4 58 5c be 4d df cc bd
       -0.21438463 -0.24423395 -0.21518189 -0.10003529
000080 e2 c8 83 be 90 7a 3e be 6b 0e fe bd 9d 9a 51 be
       -0.257392 -0.18601441 -0.12405094 -0.20469137
000090 0e 1d 7b bd 10 be 6c bd 2b 0c dc bc 4c 33 29 be
       -0.061307006 -0.057798445 -0.02686127 -0.16523474
0000a0 76 5e 81 bd 2e 50 1f 3e 2e 22 42 be ed fc e4 bd
       -0.06316845 0.1555793 -0.18958351 -0.11181054
0000b0 52 24 4f 3d 3b ea 31 be 05 fa 3c be 46 f6 12 be
       0.050571747 -0.17374508 -0.1845475 -0.14351758
0000c0 05 68 24 be 7a 32 f8 bc 78 7d a4 3d 7f 22 19 3e
       -0.16055305 -0.030297507 0.08031744 0.14954565
0000d0 99 87 64 3e d6 19 74 3e e3 c0 3c 3e d5 ac 4a be
       0.22317351 0.2383798 0.18432955 -0.19792493
0000e0 74 b4 7c be 9c e2 40 be a5 e2 88 be 0c 13 86 bd
       -0.24678212 -0.18836445 -0.26735416 -0.06546602
0000f0 1d de 00 3e ca b0 3a 3e 05 e5 56 3e 9c f2 92 be
       0.1258473 0.18231502 0.20985802 -0.2870072
000100 a0 26 86 3e 06 a0 24 3e 1f cd ae bd c8 04 57 bd
       0.26201344 0.16076669 -0.085352175 -0.052494794
000110 5f 1c 2b 3c d9 48 c5 bd 09 e1 52 be a1 55 91 3d
       0.010443776 -0.09633035 -0.20593657 0.070964105
000120 03 63 b7 3c b5 b7 19 3e ba 72 53 3e 55 b9 6e 3e
       0.02238608 0.15011485 0.20649233 0.23312886
000130 f5 ac 29 be c2 d9 25 3e 0e 23 71 be e2 43 3f be
       -0.16569884 0.1619635 -0.23548529 -0.18678239
000140 be f1 25 3e 42 32 46 bc 24 dd 86 be 89 54 16 be
       0.16205499 -0.012096943 -0.26340592 -0.14680685
000150 c5 06 44 be 3c c6 5d bd 36 8a 44 bd 70 18 2b be
       -0.19143207 -0.05414413 -0.04798337 -0.16708541
000160 aa 31 fa bd a7 79 07 3e 7e fe 3f 3e 7a bc fe bd
       -0.12216504 0.1323 0.18749425 -0.12438293
000170 d7 4c b3 be 12 68 15 be 61 03 15 3e 4d a7 20 be
       -0.35019562 -0.14590481 0.1455207 -0.1568882

decoder.4.bias f4 [3]
000000 f7 31 01 be 76 21 d7 bd 27 9b fd bd
       -0.12616716 -0.10504429 -0.123831086
