autoencoder_best.pth (torch, 28534 bytes, 10 tensors)

encoder.0.weight f4 [16, 3, 3, 3]
-0.1343457 -0.14417697 -0.23793487 0.06620334 -0.20207977 -0.07019091 0.02546985 -0.24240372
-0.03647789 0.07547981 -0.17806472 -0.18134317 -0.070746206 0.009743466 -0.024144491 -0.16926332
-0.0987469 -0.014187265 0.021982623 -0.08167774 -0.02824946 -0.029557128 -0.052124564 -0.12903419
-0.053148627 -0.09370469 0.08183901 -0.066591665 -0.15083632 0.13832374 -0.12888354 -0.16106847
-0.14202799 -0.029529616 -0.012419134 -0.004771173 0.05218178 -0.094404034 0.09101169 -0.18461505
0.16212352 -0.09959334 0.0937102 0.06964783 0.00971438 0.17940776 0.10309176 -0.02696611
0.11667515 0.18664245 0.083743826 -0.0073842257 0.039992213 0.18886067 -0.12902011 -0.1986192
-0.21199651 -0.22027026 -0.22233458 0.07802633 -0.23619132 -0.13475192 -0.16948852 -0.038021713
0.029044636 -0.08407235 -0.012600124 -0.14649668 0.004793606 0.09687727 -0.12684694 -0.17018636
-0.21000037 -0.02410933 -0.05152328 -0.15018846 -0.13508387 -0.18084416 -0.079920694 0.09817097
0.04772508 -0.047419887 0.007430774 -0.14617874 0.061764896 -0.066637516 -0.069525 -0.065606445
0.11917863 0.1671949 -0.13430442 -0.054170765 0.089103274 -0.0596139 -0.025543269 0.014101439
0.1284519 -0.13684851 -0.105404064 0.025111612 0.066003576 -0.18564211 -0.0099483 0.1808696
0.17796901 -0.07144872 -0.02578076 0.16223799 -0.093356684 0.07353574 -0.2819355 -0.20006675
-0.027724776 0.087638356 -0.05984786 0.07943203 -0.17433457 -0.16542566 -0.19033141 0.06348803
-0.0864893 -0.09534942 -0.04869934 -0.020961389 -0.08888792 -0.20918955 -0.124835715 0.04136266
-0.23046865 -0.102285706 -0.18930638 -0.18972842 -0.034958776 0.016064184 -0.16857125 0.0347203
-0.20306832 -0.07733298 -0.037895374 -0.00840995 -0.13207805 -0.22571321 -0.2578792 -0.004934808
-0.21024814 -0.112971574 0.08053546 -0.21776058 0.15977658 -0.11537174 -0.13869268 0.055124123
-0.11013437 -0.010343136 0.03242606 0.07052397 0.016178083 -0.13845237 -0.16167262 0.08904782
-0.06368666 -0.13412248 -0.03798702 -0.16634156 -0.057933528 -0.14986826 -0.07653903 -0.10581879
-0.2214629 -0.05306889 -0.105329655 0.03412648 0.13968952 -0.22204664 -0.0311462 0.060763717
-0.074002296 0.072446235 -0.20700833 -0.048961665 -0.19249584 0.03656066 -0.10396384 -0.016132506
-0.124692366 0.08912149 0.03226755 -0.094397575 -0.0869853 0.14374442 -0.17625308 -0.0144607425
0.051311076 0.10637246 -0.03482662 -0.15769666 -0.04454796 0.08589397 0.10333674 -0.1405281
0.092908815 -0.119476415 -0.090155326 -0.06906308 0.14553173 0.0746233 0.038099393 0.0011993945
0.06645016 -0.19046785 -0.060077056 0.18871345 0.01639323 0.10606156 0.14714374 0.15700884
0.06173794 -0.25587884 -0.0087710945 0.045732453 -0.0045911614 -0.13464296 -0.24649464 -0.11497969
-0.16532737 -0.21554486 -0.20872578 0.108319946 -0.081877455 0.050173897 -0.0125381015 -0.17403434
0.10811853 -0.17233272 0.1249908 -0.029163899 0.15613404 -0.044444345 -0.13562693 -0.13390972
-0.12557338 -0.079696395 0.04539388 0.1044997 0.19850448 0.061273348 -0.057772897 0.10440112
0.049162112 0.07090271 0.19503398 0.094083056 0.0642935 -0.058177598 0.028525775 -0.09668029
00000000: eb91 09be 21a3 13be 33a5 73be 9e95 873d
00000010: 00ee 4ebe 40c0 8fbd 26a6 d03c ae38 78be
00000020: d769 15bd 2995 9a3d 9956 36be 06b2 39be
00000030: 63e3 90bd 0fa3 1f3c abca c5bc 5d53 2dbe
00000040: d13b cabd b471 68bc e714 b43c a946 a7bd
00000050: 696b e7bc ca21 f2bc 9180 55bd 8a21 04be
00000060: 60b2 59bd 3fe8 bfbd 369b a73d 3661 88bd
00000070: d674 1abe bda4 0d3e 0cfa 03be 22ef 24be
00000080: c96f 11be 18e8 f1bc a079 4bbc 8057 9cbb
00000090: 90bc 553d e756 c1bd 5664 ba3d ba0b 3dbe
000000a0: b503 263e 98f7 cbbd 22eb bf3d 86a3 8e3d
000000b0: 1029 1f3c abb6 373e c621 d33d 08e8 dcbc
000000c0: 62f3 ee3d 331f 3f3e e281 ab3d 60f7 f1bb
000000d0: e0ce 233d b164 413e d91d 04be d562 4bbe
000000e0: 9d15 59be 878e 61be adab 63be 45cc 9f3d
000000f0: 23dc 71be 68fc 09be 668e 2dbe a8bc 1bbd
00000100: 04ef ed3c 202e acbd c070 4ebc 3a03 16be
00000110: ae13 9d3b 9767 c63d 2ae4 01be 5545 2ebe
00000120: 560a 57be ee80 c5bc 130a 53bd 01cb 19be
00000130: 6d53 0abe 362f 39be 76ad a3bd dd0d c93d
00000140: 607b 433d 5b3b 42bd da7d f33b e1af 15be
00000150: 30fd 7c3d 4079 88bd 2063 8ebd ac5c 86bd
00000160: ed13 f43d 2435 2b3e 1987 09be 2ae2 5dbd
00000170: c77b b63d b42d 74bd 1e40 d1bc b909 673c
00000180: e588 033e 0422 0cbe 16de d7bd deb6 cd3c
00000190: e22c 873d f718 3ebe 32fe 22bc e135 393e
000001a0: 823d 363e b553 92bd 2c32 d3bc b721 263e
000001b0: ca31 bfbd e899 963d da59 90be 4cde 4cbe
000001c0: 121f e3bc bd7b b33d 0823 75bd 43ad a23d
000001d0: c384 32be 5865 29be 3de6 42be 0306 823d
000001e0: 4d21 b1bd 8f46 c3bd f678 47bd 38b7 abbc
000001f0: df0a b6bd c935 56be dea9 ffbd e46b 293d
00000200: f9ff 6bbe 2b7b d1bd 88d9 41be 2b48 42be
00000210: ef30 0fbd 0999 833c f19d 2cbe e036 0e3d
00000220: 24f1 4fbe c160 9ebd 2e38 1bbd e3c9 09bc
00000230: 783f 07be 5d21 67be be08 84be 2bb4 a1bb
00000240: 4a4b 57be a45d e7bd c6ef a43d a1fc 5ebe
00000250: 799c 233e 0548 ecbd 7405 0ebe d5c9 613d
00000260: 218e e1bd 4276 29bc 30d1 043d df6e 903d
00000270: e687 843c 75c6 0dbe 828d 25be b45e b63d
00000280: 276e 82bd 6757 09be 4798 1bbd 7155 2abe
00000290: b54b 6dbd 1177 19be 7fc0 9cbd 86b7 d8bd
000002a0: 2cc7 62be c45e 59bd 13b7 d7bd 35c8 0b3d
000002b0: c50a 0f3e 3260 63be 5126 ffbc 60e3 783d
000002c0: 848e 97bd b15e 943d fef9 53be 078c 48bd
000002d0: a11d 45be a1c0 153d feea d4bd 5128 84bc
000002e0: b65e ffbd 5485 b63d fa2a 043d 8453 c1bd
000002f0: 5925 b2bd bd31 133e b07b 34be c0ec 6cbc
00000300: 902b 523d ced9 d93d 5ca6 0ebd 3c7b 21be
00000310: ec77 36bd 2ee9 af3d 36a2 d33d 99e6 0fbe
00000320: fa46 be3d 0db0 f4bd 5ba3 b8bd f270 8dbd
00000330: 4506 153e 1ad4 983d 1c0e 1c3d 0035 9d3a
00000340: 0617 883d 010a 43be 5c13 76bd 193e 413e
00000350: 184b 863c ce36 d93d d9ac 163e edc6 203e
00000360: ece0 7c3d 8d02 83be a3b4 0fbc f451 3b3d
00000370: 7471 96bb d8df 09be 1769 7cbe 797a ebbd
00000380: 944b 29be cbb7 5cbe 36bc 55be d9d6 dd3d
00000390: 5eaf a7bd 2583 4d3d 9c6c 4dbc 0f36 32be
000003a0: 3f6d dd3d fd77 30be 2dfb ff3d 21e9 eebc
000003b0: 9ae1 1f3e 460b 36bd c9e1 0abe a11f 09be
000003c0: 4f96 00be dd37 a3bd efee 393d f003 d63d
000003d0: c244 4b3e c3f9 7a3d 46a3 6cbd 41d0 d53d
000003e0: 365e 493d 7135 913d fdb6 473e 9eae c03d
000003f0: 4fac 833d a24b 6ebd e3ae e93c 5100 c6bd

encoder.0.bias f4 [16]
0.13468286 -0.048901513 -0.06423653 -0.082571246 -0.086269565 0.17127456 0.075014375 -0.112375826
0.03463721 0.30918488 0.03505476 0.076540075 -0.12317071 0.028795404 0.12301007 0.027431592
00000000: 4eea 093e f44c 48bd 718e 83bd 1d1b a9bd
00000010: 19ae b0bd 9962 2f3e 23a1 993d 4c25 e6bd
00000020: bfdf 0d3d 7b4d 9e3e 9495 0f3d 0bc1 9c3d
00000030: ed40 fcbd 57e4 eb3c b4ec fb3d 38b8 e03c

encoder.3.weight f4 [8, 16, 3, 3]
0.059358615 -0.046245407 0.0033280968 0.09299112 0.09508382 0.0759541 0.059541605 -0.046610102
0.079746164 0.054302104 0.050346307 -0.009824298 -0.043701332 0.06612589 -0.054582786 0.025426708
0.060071282 0.009619862 0.040104967 0.016013058 0.08328859 0.058888 0.1070885 -0.035328098
0.08861625 0.0004086464 0.084382415 0.082850695 -0.0705523 0.026648855 0.024629833 -0.050530717
0.0077835796 -0.038627572 -0.059716694 -0.025775312 0.044138893 -0.0501631 0.08082445 -0.026264003
0.019424174 0.012565982 0.013082992 -0.038736835 0.094535924 0.008465911 0.10472128 0.08836353
0.09154515 0.064790785 0.08301194 0.044438258 0.001985557 0.051238887 0.0023113515 -0.028723216
0.015935265 -0.025908245 0.11306463 0.09468888 0.0059185075 -0.038231 0.015460758 0.002531819
-0.036712766 -0.060752414 -0.035072595 0.056784056 -0.018819235 -0.06426276 -0.041807048 -0.06823259
0.07481433 0.06943356 0.09678019 -0.022239726 -0.047719587 0.0037610792 0.033161506 -0.035089917
0.072337285 -0.16258368 -0.051410653 -0.07548855 -0.15723297 -0.1598254 -0.15030858 -0.15431209
-0.06489439 -0.060199544 0.050929993 0.075679496 -0.020685157 0.09528581 0.07609093 0.062290475
0.0783424 0.010733093 0.079594895 -0.0056380494 0.0923459 -0.007384733 0.024639115 0.09995033
0.04465272 0.09712043 0.08246707 -0.02414656 0.11074826 -0.017376436 -0.012311457 0.0098155355
-0.011614105 0.051560953 0.09447125 0.071699776 0.1198632 0.028275669 -0.018478753 -0.03551204
-0.034272086 0.0362011 0.0013367583 0.038196396 0.03639521 -0.04025671 0.054903027 0.0037562635
0.04490984 -0.004866666 0.0723341 0.1133939 0.0708258 -0.03406496 0.10592672 0.0646579
0.09871591 0.09487157 0.0204674 0.10136487 -0.030952193 0.05041159 0.04750178 0.09244597
-0.04420674 0.014014538 0.0893179 -0.008833582 0.030209837 0.03365747 0.012310761 -0.051019497
0.016134184 0.054769777 -0.0123970285 -0.06261613 0.04374931 -0.062450707 0.081467874 0.08227775
-0.060883723 -0.05565217 0.015430986 0.07152953 -0.04164528 0.04159095 -0.007338498 0.086418755
0.023378443 -0.013804613 -0.02263335 0.031812772 0.07374517 0.07478853 -0.020585239 0.000117675176
-0.021740863 0.027420508 0.07326581 0.015416146 -0.044242352 0.08514066 0.056639243 0.06330082
0.08160807 0.085933626 0.067886926 0.05380766 -0.025988907 0.059024304 -0.037762646 -0.06746459
0.073146224 0.008854074 0.02278032 -0.0532115 0.10001871 0.07999233 -0.02441299 0.024344971
0.10138676 -0.047582924 0.06627098 -0.037398625 0.10039081 -0.05035209 0.041707702 0.039120592
-0.00041722506 -0.033756148 0.07643009 -0.07594269 0.016027994 -0.02111014 -0.045081556 -0.0010969937
0.024922373 0.08630508 -0.039810654 0.035513308 0.054470442 0.038043097 0.0037719249 0.04215031
0.0884755 -0.10328355 -0.0024050085 -0.12819801 -0.10293554 -0.14268681 -0.040819015 -0.011249216
0.0002644485 -0.04762318 0.062361684 0.05234532 0.083064124 -0.038730793 0.014701009 0.08700566
-0.0048244335 -0.032623097 0.006121629 0.015401983 -0.0018919689 0.05757671 0.10471208 0.07975915
-0.0499871 0.018662114 0.09094074 0.09069808 -0.029875273 -0.03767887 0.03205724 0.07178205
00000000: 0522 733d d36b 3dbd 331c 5a3b 2172 be3d
00000010: 4ebb c23d d38d 9b3d e6e1 733d 3cea 3ebd
00000020: f551 a33d e26b 5e3d ee37 4e3d 18f6 20bc
00000030: 2b00 33bd 036d 873d 3392 5fbd ac4b d03c
00000040: 4e0d 763d a09c 1d3c 1b45 243d d12d 833c
00000050: 3593 aa3d 8b34 713d 3751 db3d 32b4 10bd
00000060: 707c b53d 973f d639 b0d0 ac3d a0ad a93d
00000070: b97d 90bd b34e da3c 81c4 c93c 4cf9 4ebd
00000080: 660d ff3b f237 1ebd 7e99 74bd bf26 d3bc
00000090: fcca 343d d377 4dbd 4a87 a53d 9b27 d7bc
000000a0: 721f 9f3c 8ce1 4d3c 0c5a 563c 84aa 1ebd
000000b0: 0d9c c13d 9bb4 0a3c 1c78 d63d f0f7 b43d
000000c0: 067c bb3d 08b1 843d 2a02 aa3d e404 363d
000000d0: 1e20 023b dedf 513d 0b7a 173b f34c ebbc
000000e0: ac8a 823c 873d d4bc 6e8e e73d 3eec c13d
000000f0: 0af0 c13b 1c98 1cbd 1e4f 7d3c e0ec 253b
00000100: 2060 16bd 86d7 78bd 48a8 0fbd 6696 683d
00000110: cc2a 9abc 329c 83bd de3d 2bbd 87bd 8bbd
00000120: 4138 993d 2f33 8e3d b134 c63d 1630 b6bc
00000130: 9d75 43bd 707c 763b 5cd4 073d 72ba 0fbd
00000140: 9225 943d 567c 26be fa93 52bd be99 9abd
00000150: ae01 21be 45a9 23be 7eea 19be fd03 1ebe
00000160: 5ae7 84bd cc93 76bd f89b 503d dafd 9a3d
00000170: eb73 a9bc 3525 c33d 90d5 9b3d 4c24 7f3d
00000180: fb71 a03d dbd9 2f3c a602 a33d 63bf b8bb
00000190: d91f bd3d a1fb f1bb f8d7 c93c c2b2 cc3d
000001a0: c5e5 363d 13e7 c63d 7fe4 a83d 02cf c5bc
000001b0: fccf e23d 0759 8ebc feb5 49bc 57d1 203c
000001c0: 1649 3ebc 9431 533d 257a c13d 55d7 923d
000001d0: d67a f53d 60a2 e73c c160 97bc 1375 11bd
000001e0: e360 0cbd 9b47 143d 2a36 af3a d373 1c3d
000001f0: 2513 153d 38e4 24bd ffe1 603d a52b 763b
00000200: 61f3 373d 8e78 9fbb e723 943d 103b e83d
00000210: 1e0d 913d b387 0bbd 1cf0 d83d 5c6b 843d
00000220: 912b ca3d 074c c23d 40ab a73c 6398 cf3d
00000230: 748f fdbc 627c 4e3d 3a91 423d 5054 bd3d
00000240: 2012 35bd 3c9d 653c 4eec b63d baba 10bc
00000250: 9f7a f73c 6adc 093d 13b3 493c d2f9 50bd
00000260: d62b 843c 4656 603d e81c 4bbc e33c 80bd
00000270: 7a32 333d 50cc 7fbd a1d8 a63d 3d81 a83d
00000280: 3661 79bd 88f3 63bd 3fd2 7c3c 137e 923d
00000290: 3e94 2abd 465b 2a3d c877 f0bb 51fc b03d
000002a0: 2684 bf3c be2c 62bc 9369 b9bc 1c4e 023d
000002b0: b507 973d bb2a 993d 60a2 a8bc 61c8 f638
000002c0: e519 b2bc f9a0 e03c 630c 963d 0194 7c3c
000002d0: 7837 35bd 3a5e ae3d 8dfe 673d dca3 813d
000002e0: 2222 a73d f8fd af3d 4d08 8b3d 6c65 5c3d
000002f0: b0e6 d4bc 78c3 713d 01ad 1abd e02a 8abd
00000300: b0cd 953d ae10 113c cb9d ba3c 4df4 59bd
00000310: 9cd6 cc3d 05d3 a33d c0fd c7bc 1b6f c73c
00000320: dda3 cf3d 50e6 42bd 14b9 873d 4d2f 19bd
00000330: b299 cd3d fe3d 4ebd b2d5 2a3d ea3c 203d
00000340: 00bf dab9 e343 0abd 6187 9c3d d787 9bbd
00000350: 244d 833c 2cef acbc 70a7 38bd 00c9 8fba
00000360: 012a cc3c b8c0 b03d 7f10 23bd 6776 113d
00000370: 661c 5f3d 14d3 1b3d 6632 773b cea5 2c3d
00000380: a532 b53d 5386 d3bd 599d 1dbb 5746 03be
00000390: decf d2bd 7e1c 12be d731 27bd a24e 38bc
000003a0: ada5 8a39 8610 43bd f76e 7f3d 0c68 563d
000003b0: 861d aa3d 2ea4 1ebd 80dc 703c 0630 b23d
000003c0: 4816 9ebb cc9f 05bd f297 c83b 9958 7c3c
000003d0: f1fb f7ba 8ed5 6b3d 4973 d63d c458 a33d
000003e0: 46bf 4cbd 4ae1 983c 243f ba3d eabf b93d
000003f0: fdbc f4bc 2955 1abd 744e 033d 7802 933d

encoder.3.bias f4 [8]
0.012850449 -0.0058579836 -0.03276403 0.005190749 0.025777508 -0.035730787 0.0784599 0.025415793
00000000: b18a 523c 54f4 bfbb 9333 06bd 2917 aa3b
00000010: 5a2b d33c 725a 12bd 96af a03d c834 d03c

decoder.0.weight f4 [8, 16, 3, 3]
0.073640935 0.05277965 -0.078076236 -0.021640979 0.013206311 0.0076803043 -0.052676678 0.07254633
0.061079733 0.056273405 -0.025676545 0.058946297 -0.034805804 -0.07618374 0.03994461 0.06369236
-0.09725158 0.0028202788 0.029602347 0.064233564 0.04421739 -0.003389217 -0.008821461 -0.061183374
0.06920754 -0.044254288 0.04785612 0.0067860247 0.061082292 -0.042681325 -0.009139428 -0.0152642
-0.026009975 -0.07802011 -0.008769451 -0.003003759 -0.053305656 0.08430178 -0.03205504 0.059501566
-0.0038685785 0.09487564 -0.0025202404 0.0052568335 0.032230813 0.030158523 0.08268174 -0.02133902
0.095971085 0.041437138 0.033906583 -0.031666182 0.12214886 0.11518127 0.022594875 0.05658104
0.041242823 0.008276117 0.06496093 -0.046571918 0.03528098 -0.021961825 0.048351634 -0.04421849
0.0010575767 0.034846067 -0.08576988 0.12569273 -0.07624425 -0.036558513 -0.015167372 0.005310107
0.07567406 0.048187144 0.05975128 -0.046711884 0.07961676 -0.037271272 0.0285988 0.039443668
-0.051418833 0.0041814335 -0.048098236 -0.050580174 0.08314367 0.087220155 0.04411282 -0.030864373
0.05991666 0.028660275 -0.057973556 -0.060081612 -0.07690888 -0.042729937 -0.028731147 0.023022287
0.07415331 -0.07706684 0.033472575 -0.044652287 -0.023353044 0.08715852 0.11859756 0.065654516
0.118883446 0.005227793 0.120230466 0.0009746349 -0.0364337 -0.010299599 0.0164861 0.03712698
-0.06308885 0.042649336 -0.059440352 0.040160373 0.0045814496 -0.05033798 -0.058316477 -0.043030135
-0.046302307 0.031170102 -0.05909585 0.025939323 -0.032317724 -0.055836182 -0.07065207 -0.033649437
-0.057754308 0.04785126 0.061122585 -0.035761114 0.0043464378 0.066482425 -0.027079135 0.075514205
-0.011742215 -0.01001811 -0.051357012 0.07485196 0.06948767 0.055268772 0.011015004 0.02505567
0.021925591 0.08746176 0.061695255 -0.07723433 -0.07221687 -0.077515334 -0.053565197 -0.013282069
-0.022150498 0.03865834 -0.11132724 -0.100850396 0.023653708 -0.09255509 0.005778961 -0.047094505
-0.024603345 -0.052547425 0.009729089 0.0032291063 -0.030657556 0.07523053 -0.00817767 -0.035373174
0.018672872 0.06967383 0.017721524 -0.017133875 0.06781541 -0.07330606 0.0015348172 0.011098488
0.041475028 -0.085889466 0.045532227 0.033145614 0.06111143 0.019703194 -0.08203291 0.030124545
0.05372876 0.07561344 -0.07410331 0.06323673 0.052232437 0.026248235 -0.026831653 -0.01240352
0.06793428 0.08593001 0.15309963 0.100128904 0.04875276 0.009410902 -0.05968411 -0.02600027
-0.047439974 -0.07182194 -0.03765423 0.04509872 -0.09541307 0.026350908 -0.096158996 0.08839643
-0.016456738 0.04790846 -0.06513494 -0.015048674 -0.020645851 0.082022235 0.034643292 0.06059993
0.07423823 0.030534126 -0.051556654 -0.074177265 0.08797157 -0.07294568 0.03256738 -0.037397332
0.0648996 0.044164553 0.07776387 -0.0027650546 0.050796874 0.02583324 0.023562498 -0.039670974
0.042631242 0.024779456 0.05639059 0.07580892 0.043255277 0.015068018 -0.0924513 0.0054527563
-0.0067107454 -0.031479638 0.04939226 -0.054766178 0.08395063 -0.020717306 0.10421989 0.008418351
0.05278954 -0.022798378 -0.023810774 0.075850844 0.028051134 -0.021219028 -0.0048272246 0.022430474
00000000: 0fd1 963d 792f 583d 6fe6 9fbd 6c48 b1bc
00000010: 485f 583c 10ab fb3b 80c3 57bd 2c93 943d
00000020: be2e 7a3d f17e 663d 9e57 d2bc ac71 713d
00000030: 8890 0ebd 3806 9cbd f69c 233d 2471 823d
00000040: d62b c7bd 6dd4 383b 9f80 f23c e38c 833d
00000050: 4b1d 353d a01d 5ebb e487 10bc 6b9b 7abd
00000060: afbc 8d3d fc43 35bd c704 443d 4d5d de3b
00000070: 6d31 7a3d 9dd2 2ebd 8abd 15bc b216 7abc
00000080: df12 d5bc 02c9 9fbd bead 0fbc b7da 44bb
00000090: 0857 5abd 69a6 ac3d 254c 03bd eab7 733d
000000a0: fa87 7dbb 294e c23d 9e2a 25bb 8441 ac3b
000000b0: 7504 043d 020f f73c 0b55 a93d 2bcf aebc
000000c0: 7d8c c43d fdb9 293d a1e1 0a3d 66b4 01bd
000000d0: 2e29 fa3d 28e4 eb3d e318 b93c 85c1 673d
000000e0: 3cee 283d 8d98 073c 3c0a 853d 32c2 3ebd
000000f0: ca82 103d 49e9 b3bc 5d0c 463d 731e 35bd
00000100: 639e 8a3a c0ba 0e3d 1ea8 afbd 98b5 003e
00000110: f225 9cbd 61be 15bd 9280 78bc 6800 ae3b
00000120: 00fb 9a3d e25f 453d c2bd 743d f654 3fbd
00000130: 1d0e a33d c3a9 18bd 0848 ea3c af8f 213d
00000140: 8e9c 52bd 6804 893b a802 45bd 282d 4fbd
00000150: 3a47 aa3d 7ba0 b23d a5af 343d 48d7 fcbc
00000160: 2c6b 753d f4c8 ea3c ae75 6dbd 2318 76bd
00000170: 6782 9dbd 9605 2fbd 955d ebbc 3c99 bc3c
00000180: b1dd 973d 38d5 9dbd 8a1a 093d 51e5 36bd
00000190: e24e bfbc 2b80 b23d 47e3 f23d e075 863d
000001a0: 2a79 f33d e84d ab3b 643b f63d a47e 7f3a
000001b0: 813b 15bd a6bf 28bc dc0d 873c 7612 183d
000001c0: ba34 81bd 12b1 2e3d ba77 73bd 347f 243d
000001d0: fc1f 963b 332f 4ebd 42dd 6ebd 5e40 30bd
000001e0: 7da7 3dbd 7158 ff3c 7d0e 72bd b47e d43c
000001f0: 975f 04bd 7bb4 64bd 08b2 90bd fed3 09bd
00000200: c88f 6cbd afff 433d ad5b 7a3d 3f7a 12bd
00000210: 906c 8e3b f027 883d 10d5 ddbc 31a7 9a3d
00000220: 6b62 40bc 0023 24bc bb5b 52bd fc4b 993d
00000230: 8d4f 8e3d 8261 623d 4678 343c 8c41 cd3c
00000240: 4c9d b33c 271f b33d 2ab4 7c3d 082d 9ebd
00000250: 70e6 93bd 5cc0 9ebd 2e67 5bbd 099d 59bc
00000260: f674 b5bc 3558 1e3d 89ff e3bd a78a cebd
00000270: 6cc5 c13c 868d bdbd 705d bd3b 2be6 40bd
00000280: f48c c9bc f83b 57bd c266 1f3c 6a9f 533b
00000290: 8e25 fbbc 7712 9a3d a2fb 05bc 76e3 10bd
000002a0: daf7 983c 27b1 8e3d bb2c 913c 575c 8cbc
000002b0: cee2 8a3d 7d21 96bd eb2b c93a 6fd6 353c
000002c0: b8e1 293d d1e6 afbd 0080 3a3d b2c3 073d
000002d0: fb4f 7a3d 9868 a13c df00 a8bd c0c7 f63c
000002e0: b012 5c3d 38db 9a3d 7ac3 97bd 4282 813d
000002f0: aef1 553d 8a06 d73c 0ece dbbc 2238 4bbc
00000300: 2121 8b3d 13fc af3d 26c6 1c3e 6210 cd3d
00000310: f9b0 473d 2f30 1a3c 5377 74bd 85fe d4bc
00000320: 6b50 42bd 6217 93bd 523b 1abd 6fb9 383d
00000330: ed67 c3bd dcdd d73c 02ef c4bd 3009 b53d
00000340: 48d0 86bc a93b 443d 7865 85bd b78e 76bc
00000350: 7d21 a9bc 46fb a73d 20e6 0d3d a237 783d
00000360: 370a 983d b422 fa3c 122d 53bd 40ea 97bd
00000370: 702a b43d 8b64 95bd 6065 053d f22d 19bd
00000380: 15ea 843d e4e5 343d aa42 9f3d eb35 35bb
00000390: 6210 503d 3ba0 d33c 2406 c13c 087e 22bd
000003a0: 199e 2e3d 49fe ca3c d2f9 663d b541 9b3d
000003b0: 722c 313d d9df 763c 1b57 bdbd 09ad b23b
000003c0: d0e5 dbbb cbf0 00bd 8a4f 4a3d 8052 60bd
000003d0: 4fee ab3d 57b7 a9bc 3d71 d53d 20ed 093c
000003e0: d839 583d aac3 babc d00e c3bc b057 9b3d
000003f0: 7ecb e53c 87d3 adbc b22d 9ebb 1dc0 b73c

decoder.0.bias f4 [16]
-0.07477688 -0.08113721 -0.034602456 0.07042894 0.1075409 0.10915208 -0.013736616 -0.011089887
0.009140341 0.08320886 -0.1090878 0.07374548 -0.044821054 0.07232511 -0.038748454 -0.08640701
00000000: 9f24 99bd 442b a6bd 4ebb 0dbd 0c3d 903d
00000010: 673e dc3d 208b df3d 8b0f 61bc 5bb2 35bc
00000020: 5ec1 153c 6869 aa3d 6d69 dfbd df07 973d
00000030: 4896 37bd 301f 943d b3b6 1ebd 29f6 b0bd

decoder.2.weight f4 [16, 8, 5, 5]
-0.061380982 0.033393286 -0.034308344 -0.06859993 -0.068687834 0.05829794 0.03671483 0.015998356
0.05842132 0.005513333 -0.0354164 -0.023987789 0.008737415 0.04239298 0.046773292 0.02001413
0.013482872 -0.04970132 0.10522143 -0.025182756 -0.052016616 0.0064751506 -0.060381703 -0.009454302
-0.001999362 -0.048149496 0.0068091624 0.033340286 -0.07382357 -0.008912968 0.059384726 -0.025466066
-0.011091748 0.06079281 0.104471594 0.019340485 0.04098332 -0.0005964156 -0.01815482 -0.06373295
-0.048663344 0.06716095 -0.04304983 -0.030206861 -0.023360642 0.01696305 0.03767679 -0.04767094
0.014897517 0.06333103 0.07030023 -0.036526766 0.06657549 0.0285496 0.06253969 -0.031045651
-0.010549004 -0.017987909 0.056414574 0.06351219 0.09056692 0.01149079 0.06752971 0.09191052
0.06771064 -0.008375187 0.07875392 0.013085343 -0.0049575274 0.062698916 0.0022263078 0.08188108
0.037050176 0.013063255 0.08328003 -0.037317194 0.014232578 -0.041111767 -0.046837386 0.001099226
0.0063355323 -0.0201805 0.029611273 -0.051750973 -0.05020067 -0.038839344 -0.09481103 -0.0025116848
-0.07803659 -0.093303524 0.024985602 0.0025746434 0.006599327 -4.376821e-05 -0.057068273 -0.072839834
0.045710113 -0.0018216098 -0.005298225 -0.07530853 -0.03002593 0.020104028 0.019327557 -0.026648112
-0.017739903 0.062972076 -0.04138466 -0.05367557 0.058761112 -0.04600253 -0.018095052 0.0067768637
0.048515882 -0.01133858 0.0098748775 -0.043903682 0.015214421 -0.026909038 -0.059253618 -0.052732974
0.016909573 -0.06197458 -0.056559354 -0.045817807 -0.02237808 -0.0191628 -0.06890435 -0.057696514
0.027475417 0.065119274 -0.055695064 0.049924396 0.007955921 -0.07030446 0.008434236 0.03752724
0.010180429 -0.030057527 -0.015275996 0.009160039 -0.032760933 -0.024106149 0.033114612 0.062362142
-0.05154454 -0.06554016 0.036608607 0.025125992 0.06638826 -0.009794213 -0.030828876 -0.036506508
0.036786765 -0.011502923 -0.09189031 -0.039209794 -0.043026205 0.0018422115 -0.040362246 0.04386666
0.01383945 0.05754197 0.006154869 -0.0123831155 -0.008669591 -0.015303911 0.007744804 0.0175618
0.009583123 0.016319605 -0.047481924 -0.05216886 0.0087136505 0.02632402 -0.06849551 -0.046833083
0.036534574 0.06519858 0.0009786785 -0.0408346 0.07582664 0.06998894 0.060922027 0.036230348
-0.06924559 -0.030664852 0.03273731 0.05389606 -0.014408956 -0.04847066 -0.025870148 -0.029478904
0.0009278668 0.007359541 0.0193651 0.055952225 -0.05948502 0.06195748 -0.015415265 0.021033822
0.020762185 -0.0133765675 0.01279857 -0.03729828 0.065302186 -0.04498819 0.009190939 0.027407752
0.042967036 -0.045377553 0.0059782416 0.05383508 -0.0039996505 0.0023676332 0.009691961 -0.06595907
-0.051222477 -0.046233132 0.030875 -0.05735299 -0.043521725 -0.065150544 0.0057030846 0.0034597437
-0.032306816 0.023622729 -0.010562692 -0.011948727 0.07822957 0.06529219 0.05991792 -0.011062543
-0.02575552 0.05047724 0.057873253 0.0038202696 0.03493791 0.039216794 0.020063436 0.07749338
-0.017531378 0.075506896 0.056097675 0.06913651 -0.053026553 0.088295065 0.028196113 -0.00066371897
0.08845901 0.022531599 -0.046572927 -0.0059518814 0.012102221 -0.041124165 0.0831399 0.06597735
00000000: a06a 7bbd 66c7 083d e886 0cbd 1f7e 8cbd
00000010: 35ac 8cbd d2c9 6e3d 4a62 163d fc0e 833c
00000020: 324b 6f3d 30a9 b43b c910 11bd 0a82 c4bc
00000030: 6027 0f3c 43a4 2d3d 5a95 3f3d acf4 a33c
00000040: 44e7 5c3c 9c93 4bbd 557e d73d 114c cebc
00000050: 600f 55bd 802d d43b ce52 77bd 37e6 1abc
00000060: ba07 03bb 6838 45bd 651f df3b d38f 083d
00000070: d030 97bd b307 12bc 663d 733d 369e d0bc
00000080: 2aba 35bc e201 793d 34f5 d53d f06f 9e3c
00000090: 20de 273d c658 1cba 6bb9 94bc 6c86 82bd
000000a0: 3753 47bd ae8b 893d 0555 30bd 6174 f7bc
000000b0: d15e bfbc 18f6 8a3c fa52 1a3d 9b42 43bd
000000c0: b714 743c b3b3 813d 91f9 8f3d 179d 15bd
000000d0: bb58 883d dae0 e93c cf14 803d 7353 febc
000000e0: bbd5 2cbc 615b 93bc f812 673d ae12 823d
000000f0: 267b b93d de43 3c3c 044d 8a3d 953b bc3d
00000100: e0ab 8a3d 1538 09bc bc49 a13d e863 563c
00000110: c172 a2bb 4a68 803d 3fe7 113b 45b1 a73d
00000120: edc1 173d 4307 563c b88e aa3d ead9 18bd
00000130: c22f 693c d064 28bd 8fd8 3fbd e713 903a
00000140: 4c9a cf3b 9351 a5bc 5793 f23c d4f8 53bd
00000150: 389f 4dbd 0116 1fbd 492c c2bd 149b 24bb
00000160: a6d1 9fbd eb15 bfbd 9bae cc3c 59bb 283b
00000170: 2b3f d83b c293 37b8 6cc0 69bd 0d2d 95bd
00000180: 873a 3b3d 15c3 eeba bc9c adbb 5c3b 9abd
00000190: f0f8 f5bc 34b1 a43c d354 9e3c 244d dabc
000001a0: 4653 91bc 81f7 803d f682 29bd eada 5bbd
000001b0: 7eaf 703d 266d 3cbd 133c 94bc 7410 de3b
000001c0: 97b8 463d 74c5 39bc 3dca 213c 59d4 33bd
000001d0: e845 793c 5870 dcbc ecb3 72bd 88fe 57bd
000001e0: f285 8a3c 0fd9 7dbd c8aa 67bd 74ab 3bbd
000001f0: 3c52 b7bc 4efb 9cbc b91d 8dbd 2e53 6cbd
00000200: 2014 e13c 415d 853d 8220 64bd 867d 4c3d
00000210: 8d59 023c c9fb 8fbd c02f 0a3c 2ab6 193d
00000220: d0cb 263c 343b f6bc 2c48 7abc fd13 163c
00000230: 5430 06bd 427a c5bc 30a3 073d 726f 7f3d
00000240: 5e20 53bd eb39 86bd e8f2 153d 06d5 cd3c
00000250: 91f6 873d e877 20bc d78c fcbc d987 15bd
00000260: b8ad 163d c276 3cbc fd30 bcbd 739a 20bd
00000270: 3f3c 30bd 5c76 f13a e252 25bd 87ad 333d
00000280: dcbe 623c 21b1 6b3d c9ae c93b 8de2 4abc
00000290: e60a 0ebc 41bd 7abc 20c8 fd3b c4dd 8f3c
000002a0: 8802 1d3c b1b0 853c 687c 42bd 04af 55bd
000002b0: b3c3 0e3c 79a5 d73c 6047 8cbd 0cd4 3fbd
000002c0: 47a5 153d d586 853d 0047 803a 2e42 27bd
000002d0: ff4a 9b3d 5d56 8f3d 6089 793d 4666 143d
000002e0: a2d0 8dbd db34 fbbc 8f17 063d 1dc2 5c3d
000002f0: 8b13 6cbc 2c89 46bd a2ed d3bc be7d f1bc
00000300: 163c 733a 4e28 f13b 8fa3 9e3c 292e 653d
00000310: 90a6 73bd 20c7 7d3d 4f90 7cbc 1f4f ac3c
00000320: 7515 aa3c 6429 5bbc 18b1 513c 15c6 18bd
00000330: 27bd 853d 8945 38bd 9895 163c 3986 e03c
00000340: 34fe 2f3d d0dd 39bd 20e5 c33b 2c82 5c3d
00000350: 800f 83bb 4b2a 1b3b 08cb 1e3c 8d15 87bd
00000360: a9ce 51bd f45e 3dbd 91ed fc3c f8ea 6abd
00000370: d643 32bd a66d 85bd f1e0 ba3b debc 623b
00000380: 2754 04bd 7484 c13c 240f 2dbc 98c4 43bc
00000390: d336 a03d e9b7 853d 7e6c 753d ab3f 35bc
000003a0: 3efd d2bc 39c1 4e3d 810c 6d3d 7d5d 7a3b
000003b0: 0e1b 0f3d caa1 203d 135c a43c d9b4 9e3d
000003c0: f79d 8fbc 5ca3 9a3d adc6 653d 7197 8d3d
000003d0: 5f32 59bd 0bd4 b43d 89fb e63c 6dfd 2dba
000003e0: ff29 b53d 3094 b83c 41c3 3ebd 0008 c3bb
000003f0: 6548 463c d071 28bd 4045 aa3d 221f 873d

decoder.2.bias f4 [8]
-0.11351413 0.0565098 0.0038616816 0.029129151 -0.038559962 0.017694892 0.08350269 -0.11090933
00000000: 197a e8bd d276 673d 4414 7d3b 42a0 ee3c
00000010: 0df1 1dbd e1f4 903c 7503 ab3d 6e24 e3bd

decoder.4.weight f4 [8, 3, 2, 2]
-0.24924235 -0.11600602 0.013991501 -0.31301025 -0.07659897 0.2717433 -0.010869355 0.059639916
-0.3183504 0.12536705 -0.18181305 -0.15027897 0.05649127 0.0811323 -0.062822014 0.28475538
0.07177031 -0.0853576 0.09975677 -0.21336524 -0.07965464 -0.20076492 -0.24378519 -0.082808
-0.051800974 -0.10275436 -0.07306807 -0.18766117 -0.21096759 -0.25523412 -0.2124503 -0.09338647
-0.2556608 -0.18753533 -0.11763153 -0.20025866 -0.06024267 -0.06043798 -0.029774586 -0.16747598
-0.061929658 0.15558429 -0.18895873 -0.11129954 0.050901644 -0.17487031 -0.1841727 -0.14234103
-0.14881048 -0.032391515 0.101556614 0.16477051 0.23176567 0.22045487 0.18253928 -0.1896467
-0.25439522 -0.18660918 -0.2646678 -0.064565025 0.1258473 0.18231502 0.20985802 -0.2870072
0.26201344 0.16076669 -0.085352175 -0.052494794 0.010443776 -0.09633035 -0.20593657 0.070964105
0.025972487 0.15221237 0.20778523 0.23619045 -0.16745579 0.1592843 -0.23531875 -0.1865498
0.16296206 -0.01095361 -0.25994694 -0.14613228 -0.18362162 -0.043096382 -0.04417543 -0.15152362
-0.12367717 0.13205154 0.1884539 -0.12588558 -0.3502129 -0.14619242 0.14949816 -0.1584216
00000000: 6339 7fbe 9094 edbd 9c3c 653c e142 a0be
00000010: ecdf 9cbd f021 8b3e 6115 32bc fc48 743d
00000020: d3fe a2be 3860 003e 332d 3abe bbe2 19be
00000030: 6463 673d b128 a63d d4a8 80bd 75cb 913e
00000040: 50fc 923d f7cf aebd 474d cc3d 6b7c 5abe
00000050: f921 a3bd 5295 4dbe d3a2 79be 3e97 a9bd
00000060: 422d 54bd e170 d2bd b6a4 95bd 402a 40be
00000070: e307 58be 0cae 82be 928c 59be 6841 bfbd
00000080: f9e5 82be 4309 40be cde8 f0bd 9b10 4dbe
00000090: 05c1 76bd d18d 77bd d5e9 f3bc d37e 2bbe
000000a0: f4a9 7dbd 7d51 1f3e 667e 41be 03f1 e3bd
000000b0: 3e7e 503d 3411 33be c597 3cbe d9c1 11be
000000c0: c661 18be f7ac 04bd eafc cf3d 9ab9 283e
000000d0: fb53 6d3e ecbe 613e 94eb 3a3e bf32 42be
000000e0: 1740 82be 7a16 3fbe 8a82 87be ab3a 84bd
000000f0: 1dde 003e cab0 3a3e 05e5 563e 9cf2 92be
00000100: a026 863e 06a0 243e 1fcd aebd c804 57bd
00000110: 5f1c 2b3c d948 c5bd 09e1 52be a155 913d
00000120: 41c4 d43c 8fdd 1b3e a7c5 543e e9db 713e
00000130: 8879 2bbe 6c1b 233e 66f7 70be e906 3fbe
00000140: 87df 263e c576 33bc c417 85be b3a3 15be
00000150: 4e07 3cbe d585 30bd 4cf1 34bd 0229 1bbe
00000160: 754a fdbd 8538 073e 0ffa 403e 26e8 00be
00000170: 1b4f b3be 77b3 15be 0c16 193e 4639 22be

decoder.4.bias f4 [3]
-0.1385131 -0.105193995 -0.12290875
00000000: 61d6 0dbe f36f d7bd 95b7 fbbd
